models/02_binary_classification_model.pth (torch, 3438 bytes, 5 tensors)

layers.0.weight f4 [10, 2]
000000 ac 41 29 3c de cb 98 be f5 9f 38 40 68 76 5d 3f
       0.010330599 -0.29843038 2.884763 0.865088
000010 df a5 1e be b0 1c 12 3e 16 83 7c bf 45 82 da 3f
       -0.15492962 0.14268756 -0.9863752 1.7071005
000020 6a 30 c1 3f 40 3d 8a bf cc a5 0d 3f 16 22 c5 bf
       1.50929 -1.0799942 0.5533111 -1.5401027
000030 ea 1f e9 3f 78 43 a6 3e 43 6d 8e 3f b0 14 22 bf
       1.8212864 0.3247335 1.1127094 -0.63312817
000040 b9 e9 e7 3f b1 61 c7 be 9c 03 a9 be eb 90 38 3e
       1.8118201 -0.3894172 -0.33010566 0.18024032

layers.0.bias f4 [10]
000000 54 ba 7e bf b5 1c 9a be 86 0b 93 be 06 ae 7d 3f
       -0.99503064 -0.30100027 -0.2871973 0.99093664
000010 99 a2 88 bf f7 2a 8a bf 06 7d e9 bf 37 3c 82 3f
       -1.0674621 -1.0794362 -1.8241279 1.0174626
000020 78 18 cb 3f fd c9 32 bf
       1.5866842 -0.6983946

layers.2.weight f4 [10, 10]
000000 04 2a 52 3f 1f 36 25 c0 ea fe 79 3e b3 34 c2 3e
       0.8209536 -2.5814283 0.24413648 0.3793083
000010 f6 fb 3c 40 08 fa 6f 3f 1e f3 68 40 64 09 75 3f
       2.9528785 0.9374089 3.6398387 0.95717454
000020 af c8 64 3f 1d 3f cc bd 8c 29 9a 3e 68 72 10 40
       0.8936872 -0.099729754 0.30109823 2.2569828
000030 eb 47 08 3e 92 30 84 3f ba 0f cb bf 41 73 d7 bc
       0.13308685 1.0327322 -1.5864174 -0.026300075
000040 d1 17 1c c0 d6 d6 5e 3f e2 db 47 3e 45 5e 45 be
       -2.4389536 0.87046564 0.19517472 -0.19274242
000050 67 07 be 3e f1 b8 12 c0 0e 60 78 be fa 50 43 3e
       0.37115023 -2.292538 -0.24255392 0.19073859
000060 d7 96 26 40 93 35 73 3f ec 35 50 40 c8 29 4b 3f
       2.6029565 0.9500362 3.2532911 0.7936063
000070 f3 25 6d 3f 98 13 66 be b3 a2 14 bf a0 cf c8 3f
       0.9263603 -0.22468412 -0.5806076 1.5688362
000080 0a b3 c7 3d bd f3 14 40 7f ed 00 bf ef 9f 29 bf
       0.09750946 2.3273766 -0.5036239 -0.66259664
000090 d1 48 a7 be 4d b4 5d bf 5c e8 31 c0 b7 22 41 be
       -0.32672742 -0.8660324 -2.779807 -0.18860899
0000a0 a6 a0 91 3e 2d d3 d7 3d f3 cb 9b 3e 84 af 46 bf
       0.28442878 0.105383255 0.30429038 -0.77611566
0000b0 c8 0e 54 bf 6d da 3e bf 0c d4 59 be 44 41 c6 be
       -0.82835054 -0.7455204 -0.21272296 -0.3872167
0000c0 24 e7 cd be a8 88 86 3e 39 3a 27 be 02 c0 5c be
       -0.4021541 0.26276135 -0.16330804 -0.2155762
0000d0 73 cf 2b 3e 6d e3 02 be 4b 88 44 3e 1f af 99 bd
       0.16778354 -0.12782069 0.19192617 -0.07504105
0000e0 03 3d 39 3e 7b 98 7b be 0f 6a 23 be d0 72 c5 3d
       0.1808968 -0.24569885 -0.15958427 0.09641039
0000f0 31 ea 88 3d c8 c2 18 bf 7f 04 41 3e 09 2d 9a be
       0.066852935 -0.5967221 0.18849371 -0.30112484
000100 d9 d2 6a be 2f e0 2c be e9 40 94 3e 6d 88 da bd
       -0.22931994 -0.16882394 0.28955773 -0.106705524
000110 6d cc 20 bf 73 a9 9c be c4 70 39 be 0e c8 a1 3d
       -0.6281193 -0.3059803 -0.18109423 0.078994855
000120 77 f7 2a bd ec 0d 6b be d2 0f f3 3b 8d 31 5d be
       -0.041739907 -0.2295453 0.0074176574 -0.21600933
000130 dc 5c 89 be 66 50 32 be 52 b4 8d be cf 2f 4e be
       -0.2682866 -0.17413482 -0.27676636 -0.20135425
000140 e0 9e 91 be 34 71 0a bf 29 93 c7 3d f2 3c 65 bf
       -0.28441525 -0.54078984 0.097448654 -0.8954612
000150 55 20 c9 3e 8b ad 34 bf c4 12 0d bf e9 fd a4 3e
       0.3928248 -0.70577306 -0.5510676 0.32224968
000160 39 9d 3c bf f5 db 41 be c6 ba 65 3a b7 c2 21 bf
       -0.736774 -0.18931563 0.0008763488 -0.63187736
000170 68 83 b3 bc a7 9e 3b bf b8 3b 3c bf af 7f 26 bf
       -0.021913245 -0.7328896 -0.73528624 -0.6503858
000180 01 af dd bd db aa 44 bf 69 cc 81 be 3b 88 80 bd
       -0.10824395 -0.76823205 -0.25351265 -0.06275984

layers.2.bias f4 [10]
000000 46 2c 9a 3f 5a 7c 54 3e 38 ae 49 3f d6 2d 92 3f
       1.2044761 0.20750561 0.7878146 1.1420238
000010 45 33 1a bf 52 41 f8 bd 9a 51 47 bf 93 f6 a0 be
       -0.6023448 -0.12121834 -0.7785889 -0.3143812
000020 4d 92 02 bf 36 75 16 bf
       -0.5100449 -0.587726

layers.4.weight f4 [1, 10]
000000 53 c1 11 40 0e 76 a9 bf b5 aa 15 40 24 7c 36 c0
       2.2774246 -1.3239152 2.3385441 -2.851327
000010 fb 6c eb 3e 6e 45 87 3d 11 a2 b4 be e3 b5 82 3e
       0.45981583 0.066050395 -0.35279897 0.25529394
000020 19 f8 9f be 9f d2 88 3e
       -0.3124397 0.2672319
