models/03_multiclass_classification_model.pth (torch, 6212 bytes, 8 tensors)

layers.0.weight f4 [16, 2]
1.173369 0.89034975 -1.0153515 1.8941919 -0.15492962 0.14268756 -1.3655448 0.88556254
1.6210873 -2.3771956 1.2606969 -0.20236668 2.250445 1.2419513 1.3658198 0.51665276
2.957692 1.8952634 -1.3386208 1.1769005 -1.1183074 0.048868414 -1.2043171 1.0609231
-0.8658617 -0.5244814 -1.3193172 -1.5195974 0.83967656 -2.0362358 1.7826642 -1.7306237
00000000: f530 963f f6ed 633f 0af7 81bf e174 f23f
00000010: dfa5 1ebe b01c 123e 2cca aebf 3ab4 623f
00000020: ca7f cf3f f923 18c0 845e a13f 3639 4fbe
00000030: 4a07 1040 43f8 9e3f 2fd3 ae3f 5b43 043f
00000040: d34a 3d40 fe97 f23f ed57 abbf ada4 963f
00000050: b224 8fbf 3f2a 483d 1027 9abf 54cc 873f
00000060: 1da9 5dbf 6a44 06bf 63df a8bf 2b82 c2bf
00000070: 0bf5 563f b051 02c0 572e e43f 1485 ddbf

layers.0.bias f4 [16]
0.8918079 0.29813498 -0.22960077 0.94691396 0.36575976 0.9045479 0.26329026 -0.016788859
0.08627095 -0.018759217 0.75339264 0.8965987 0.80012375 -0.060986333 0.43329275 0.44946772
00000000: 864d 643f 26a5 983e 771c 6bbe f468 723f
00000010: dd44 bb3e 7490 673f fbcd 863e ca88 89bc
00000020: d3ae b03d eeac 99bc 57de 403f 7e87 653f
00000030: e9d4 4c3f cecc 79bd 8cd8 dd3e a220 e63e

layers.2.weight f4 [16, 16]
1.1770943 0.36887515 -0.24747711 -0.494856 -0.46917552 1.0637071 1.3866377 1.1548698
1.454088 1.5859363 -0.44634235 -0.38446844 -0.75696146 -1.2305857 -0.5271344 -0.18147415
0.4516715 0.572556 0.20734796 -0.021911494 -0.30968678 -0.00259054 1.1603397 0.54302603
1.4249953 -0.7054856 -0.074339114 -0.086195625 -0.024852378 1.0637226 0.046992857 0.07338582
-0.12910634 -0.17042795 0.13264453 -0.13368982 0.10613337 -0.08048779 0.14301148 -0.194242
-0.12616244 0.07621911 0.012922837 -0.08289509 0.100342825 0.12373385 -0.2327606 -0.1771019
-0.0531985 -0.005414554 -0.0886291 -0.6914868 0.67059493 -0.28286293 0.08135552 0.034716982
0.04789499 2.0582347 0.27311918 -0.8522093 0.45003113 0.9201428 1.0737257 0.5828279
0.07703993 -0.23317108 -0.16419345 -0.083213955 0.03909278 -0.21998033 -0.10771826 -0.14966714
0.0006928146 -0.0930258 -0.017323941 -0.16940743 -0.17159879 -0.14585045 -0.08557436 -0.19732022
-0.11991725 -0.46793827 0.21509919 0.5643788 0.3959402 0.32821 -1.2446302 -1.1194593
-1.8312819 0.49435666 0.5656263 0.3682238 0.48112217 -1.2244503 0.6627665 0.3747463
0.23423545 0.126187 0.12906295 0.70938176 0.86464864 0.19545728 0.55909306 -1.0313004
1.1516439 0.77632004 0.60428417 0.28877726 0.5056415 -0.24272685 0.49095684 0.47865555
0.6796618 0.7139973 0.032160014 0.19153972 -0.7559376 0.24463448 0.20293018 1.1248511
-0.03178174 -1.1499212 0.011409662 0.3934661 0.14050756 -1.2631948 -0.79601526 -0.7630437
-0.18676871 0.08915812 0.19351006 -0.23536009 0.058062673 0.12914795 0.045332342 -0.08903116
0.13048553 0.1313783 0.09348181 -0.04393035 -0.066200316 0.02674523 -0.044163525 -0.07450026
0.05398012 0.32979122 -0.024749339 0.20053218 -0.09998068 0.0751281 -1.373559 0.8278141
-1.8587117 -1.3135396 0.5465627 0.2694573 0.2788361 -1.4854048 -0.07226613 -0.5186853
-0.1311298 0.5828565 0.15940541 0.6207556 -1.3023757 -0.42562738 -0.8818504 0.60803604
-1.2455175 -1.2514303 0.67694324 0.36420128 0.31558487 -0.71162665 -0.7866489 -1.0305523
-0.27612674 1.0461085 0.18940866 0.77421993 -0.983239 -0.74486655 -0.5424843 2.3255622
0.1529026 1.2336448 0.44306526 0.79017526 -0.12097638 -1.328958 -0.7035005 -0.96094257
0.10234049 -0.122742 -0.050313145 -0.14387631 -0.04555589 -0.17595872 -0.16335392 0.082927704
-0.0742991 0.1543358 -0.08020219 -0.18339181 -0.044109732 -0.12118685 -0.076485395 -0.2379989
0.36958957 0.46123755 0.12565443 0.49514115 -0.8891893 -0.19755423 -0.16388567 0.5001116
-0.94743854 -1.0837543 0.20543356 0.38862845 0.010931376 -1.5829684 -0.59373033 -1.1363035
0.7445476 0.90971273 0.23642659 0.24647583 -1.010945 0.5014008 0.89243305 0.54543924
0.8761263 -1.1672128 0.038249742 0.24530719 -0.18429707 -0.9210062 -0.9450998 -0.3702882
0.2095828 -0.039217263 -0.028470516 -0.10202998 -0.2257657 -0.2432861 0.09291461 -0.13726154
-0.16071925 -0.019505799 -0.08325279 -0.080880195 0.008032799 -0.053028107 -0.08607811 -0.119701475
00000000: 07ab 963f 34dd bc3e a46a 7dbe c45d fdbe
00000010: c637 f0be 8e27 883f 587d b13f c6d2 933f
00000020: 8e1f ba3f f6ff ca3f fc86 e4be 0cd9 c4be
00000030: 3ac8 41bf d583 9dbf 48f2 06bf 5cd4 39be
00000040: 7d41 e73e 0893 123f 0653 543e bc7f b3bc
00000050: 448f 9ebe 0dc6 29bb 0386 943f c103 0b3f
00000060: 3f66 b63f b49a 34bf 1b3f 98bd 5587 b0bd
00000070: 3797 cbbc 1028 883f 957b 403d 4e4b 963d
00000080: 7434 04be aa84 2ebe f8d3 073e fce5 08be
00000090: 745c d93d c8d6 a4bd 9a71 123e 60e7 46be
000000a0: ba30 01be c418 9c3d 4fba 533c e7c4 a9bd
000000b0: 8a80 cd3d 2c68 fd3d cb58 6ebe 335a 35be
000000c0: ace6 59bd 926c b1bb 2c83 b5bd 4705 31bf
000000d0: 1cac 2b3f 69d3 90be b99d a63d 6533 0e3d
000000e0: 892d 443d 1eba 0340 47d6 8b3e 642a 5abf
000000f0: 7b6a e63e 7b8e 6b3f d86f 893f 3634 153f
00000100: 1cc7 9d3d 66c4 6ebe 5422 28be 146c aabd
00000110: c01f 203d 8642 61be 649b dcbd 5842 19be
00000120: 009e 353a 5084 bebd f0ea 8dbc 2479 2dbe
00000130: 98b7 2fbe d259 15be 9c41 afbd 500e 4abe
00000140: 2d97 f5bd 9b95 efbe f642 5c3e 217b 103f
00000150: adb8 ca3e 240b a83e 0b50 9fbf 714a 8fbf
00000160: 7267 eabf 511c fd3e e3cc 103f d487 bc3e
00000170: a555 f63e caba 9cbf 11ab 293f bfde bf3e
00000180: 6bdb 6f3e 2a37 013e 1429 043e 0b9a 353f
00000190: 9d59 5d3f f425 483e b920 0f3f a701 84bf
000001a0: 1169 933f e9bc 463f 5eb2 1a3f 9dda 933e
000001b0: b971 013f 638d 78be b25e fb3e 5712 f53e
000001c0: 51fe 2d3f 87c8 363f 38ba 033d fd22 443e
000001d0: 2085 41bf 7681 7a3e eecc 4f3e 1ffb 8f3f
000001e0: 922d 02bd 9e30 93bf 97ef 3a3c 6374 c93e
000001f0: 37e1 0f3e 5eb0 a1bf a8c7 4bbf d556 43bf
00000200: 4c40 3fbe 8898 b63d 8027 463e 3c02 71be
00000210: 20d3 6d3d 5c3f 043e 68ae 393d f855 b6bd
00000220: 009e 053e 0888 063e 6473 bf3d 50f0 33bd
00000230: 0894 87bd d018 db3c d0e4 34bd 9893 98bd
00000240: 421a 5d3d 65da a83e 20bf cabc 4f58 4d3e
00000250: acc2 ccbd c3dc 993d c8d0 afbf a0eb 533f
00000260: 44ea edbf 1122 a8bf 88eb 0b3f 4ff6 893e
00000270: 9bc3 8e3e bf21 bebf 4400 94bd 8fc8 04bf
00000280: e446 06be 1536 153f 2c3b 233e d7e9 1e3f
00000290: 3fb4 a6bf d5eb d9be f3c0 61bf 40a8 1b3f
000002a0: 1e6d 9fbf de2e a0bf 274c 2d3f 9778 ba3e
000002b0: 5794 a13e 2a2d 36bf d361 49bf 23e9 83bf
000002c0: 7c60 8dbe e2e6 853f 58f4 413e 4733 463f
000002d0: 8db5 7bbf 93af 3ebf 40e0 0abf 03d6 1440
000002e0: 8092 1c3e 13e8 9d3f 73d9 e23e ed48 4a3f
000002f0: 77c2 f7bd 4c1b aabf 9c18 34bf 5500 76bf
00000300: e497 d13d 2860 fbbd 2815 4ebd 5054 13be
00000310: d098 3abd 862e 34be 4046 27be 00d6 a93d
00000320: 202a 98bd 340a 1e3e 0c41 a4bd 10cb 3bbe
00000330: 68ac 34bd d030 f8bd 60a4 9cbd fcb5 73be
00000340: d83a bd3e 5427 ec3e 8eab 003e 2483 fd3e
00000350: e9a1 63bf a84b 4abe a5d1 27be 5007 003f
00000360: 558b 72bf 76b8 8abf 2d5d 523e 4ffa c63e
00000370: 8419 333c b59e cabf b6fe 17bf 6572 91bf
00000380: ac9a 3e3f efe2 683f d019 723e 2964 7c3e
00000390: a566 81bf ce5b 003f 7e76 643f e8a1 0b3f
000003a0: d049 603f 3b67 95bf c3ab 1c3d cf31 7b3e
000003b0: 5fb8 3cbe 10c7 6bbf 0ff2 71bf 6a96 bdbe
000003c0: e09c 563e 48a2 20bd 003b e9bc 18f5 d0bd
000003d0: 202f 67be fe1f 79be 044a be3d 4a8e 0cbe
000003e0: 9693 24be a0ca 9fbc 7080 aabd 84a4 a5bd
000003f0: 009c 033c 0034 59bd b849 b0bd 0c26 f5bd

layers.2.bias f4 [16]
-0.5702574 0.46112904 -0.14283536 0.039659284 -0.08674148 0.40983826 0.6208704 0.2895105
-0.21664992 0.3868697 0.5131199 0.017369958 0.16760617 0.3212755 0.1881536 0.051888615
00000000: 64fc 11bf 1b19 ec3e 6f43 12be c671 223d
00000010: 84a5 b1bd 52d6 d13e 5df1 1e3f b83a 943e
00000020: 7ad9 5dbe c913 c63e d35b 033f 714b 8e3c
00000030: f4a0 2b3e 397e a43e 56ab 403e 2889 543d

layers.4.weight f4 [16, 16]
-0.17375877 -0.051519275 0.18514594 0.12816146 -0.15819725 -0.20047125 -0.17084092 -0.24671942
-0.19290975 -0.06182435 0.16871929 0.04184556 -0.19015136 -0.20055598 0.12436882 -0.18596032
0.8734944 -0.014295395 -0.115623295 0.7617825 -0.02176112 0.20567526 -0.5712998 0.50413543
-0.20208925 0.59438384 1.501363 -0.9572626 -0.167882 1.064342 0.5016123 0.13697743
1.2068607 0.53219986 -0.24787524 0.16830261 0.15143827 -0.8296935 -0.61980885 1.1298324
-0.09350696 0.068681315 0.26290324 0.056264568 0.11078328 0.5376523 0.9637279 -0.18959686
-0.23347181 0.0044023395 0.22795853 0.14423034 -0.14555857 -0.032452136 -0.1842959 -0.120605856
0.045274585 0.13613462 0.20709231 -0.22952652 0.1671538 -0.17632303 0.09361681 0.21156132
-0.67918676 0.97476375 -0.21293493 0.8646493 0.14581323 -0.9175907 -0.057780888 0.8938408
0.17232653 -0.0501987 1.0992984 -1.0125588 -0.2029374 1.0380559 1.0294402 -0.11542797
0.8461276 0.64359516 0.019914925 0.1954427 -0.061525136 -0.90808505 -0.61812127 0.62948936
-0.12708035 0.28311282 0.47279072 0.25002003 0.23835745 0.59733784 0.9604233 -0.121028185
0.32712033 0.29321906 -0.16648154 0.82049936 -0.012074918 -0.16223042 -0.48288408 0.99141276
0.20104071 0.6855006 1.3189576 -1.0118176 -0.091059685 1.0807024 0.73417574 -0.03160438
-0.33817017 0.6045583 -0.19902793 1.268891 -0.09698871 -0.5611266 -0.49999663 0.9871467
-0.0755496 0.50758773 1.4558367 -0.8008272 0.24037012 1.1730853 0.6583724 0.2005755
1.1145748 -0.71829385 -0.019325823 -1.147283 -0.20464978 1.2456554 0.40819973 -0.4908623
-0.068041176 0.85230476 -0.14966778 0.3002402 -0.014153451 -0.026300719 -0.4220944 -0.17677021
-0.6505107 0.90263355 -0.20777057 0.5842336 0.24110234 0.1782667 1.0852343 -0.15163307
0.18886238 -0.5720488 -1.2141047 1.1181077 -0.12954569 -0.5141014 0.8043617 0.052464813
1.0365659 -0.58420014 -0.14714158 -0.87792075 -0.1473583 0.9399049 0.40697718 -0.693976
0.22844625 0.850185 -0.38318425 0.7462987 0.057570934 -0.22091533 -0.6857987 0.003436029
1.0281929 -0.57888144 -0.06478977 -0.43023536 -0.060541213 0.8868328 -0.42883247 0.72861004
0.19549435 1.0965081 1.1529799 -1.0261364 -0.054927856 0.84805363 0.016936613 -0.22949287
0.040793657 -0.12896854 -0.15818617 -0.15482435 0.21782991 -0.33340022 0.09084442 -0.08779897
-0.029074699 0.056265023 -0.12356706 0.058698926 0.18075374 -0.31728077 0.019758172 0.04719475
1.0244097 -0.32469162 0.06838274 -0.98862416 -0.031985283 1.341328 0.19242023 -0.5257491
-0.23513272 0.56469285 -0.61791104 0.99283624 -0.15177184 -0.37494346 -0.64372414 0.04448846
0.008923728 0.37506074 0.14486405 1.1637969 0.2018278 -0.5245544 -0.36833197 1.1415803
-0.06821692 0.5310432 1.3079473 -1.0769953 0.101760834 1.3255821 0.88051975 0.24837151
-0.8976736 1.1944131 0.013413757 0.4867638 -0.17538181 -1.7492107 0.40193558 0.85148245
-0.23014194 -1.2809029 -1.2893511 -2.1914792 -0.15345311 0.4730354 1.5251608 -0.074365705
00000000: d2ed 31be e005 53bd e696 3d3e c23c 033e
00000010: 76fe 21be 5648 4dbe ecf0 2ebe 04a4 7cbe
00000020: 228a 45be 883b 7dbd c0c4 2c3e 4066 2b3d
00000030: 0ab7 42be 8c5e 4dbe 14b5 fe3d 626c 3ebe
00000040: 549d 5f3f 3c37 6abc e8cb ecbd 2e04 433f
00000050: 6044 b2bc 899c 523e b440 12bf 050f 013f
00000060: 7cf0 4ebe 8a29 183f aa2c c03f 290f 75bf
00000070: 42e9 2bbe 5c3c 883f aa69 003f d043 0c3e
00000080: 697a 9a3f 403e 083f 02d3 7dbe 8557 2c3e
00000090: a212 1b3e cb66 54bf cbab 1ebf 599e 903f
000000a0: 9480 bfbd caa8 8c3d 419b 863e ad75 663d
000000b0: 58e2 e23d 95a3 093f dfb6 763f ae25 42be
000000c0: 3c13 6fbe 8041 903b f66d 693e 1eb1 133e
000000d0: 4e0d 15be 88ec 04bd 10b8 3cbe 3400 f7bd
000000e0: d871 393d e066 0b3e 0210 543e 0009 6bbe
000000f0: 5e2a 2b3e 068e 34be 2cba bf3d 88a3 583e
00000100: 2fdf 2dbf 1e8a 793f 9d0b 5abe a859 5d3f
00000110: 1050 153e 39e7 6abf a7ab 6cbd c0d2 643f
00000120: 5e76 303e 279d 4dbd cfb5 8c3f 879b 81bf
00000130: d2ce 4fbe 04df 843f b2c4 833f 8065 ecbd
00000140: d29b 583f a7c2 243f a024 a33c 2222 483e
00000150: c801 7cbd 4378 68bf 323d 1ebf 3726 213f
00000160: 5a21 02be 2af4 903e a011 f23e a002 803e
00000170: fa13 743e 22eb 183f 4dde 753f a0dd f7bd
00000180: 517c a73e cf20 963e 237a 2abe 3f0c 523f
00000190: e0d5 45bc bb1f 26be 953c f7be 3acd 7d3f
000001a0: 9edd 4d3e f87c 2f3f 9ad3 a83f 3d83 81bf
000001b0: 807d babd 7554 8a3f f1f2 3b3f 9873 01bd
000001c0: a424 adbe 55c4 1a3f facd 4bbe 056b a23f
000001d0: 04a2 c6bd fea5 0fbf 8fff ffbe a5b5 7c3f
000001e0: c0b9 9abd 45f1 013f db58 ba3f 0303 4dbf
000001f0: 9623 763e a927 963f 188b 283f aa63 4d3e
00000200: 63aa 8e3f 1be2 37bf 3051 9ebc 2bda 92bf
00000210: b68f 51be a371 9f3f 8eff d03e 4e52 fbbe
00000220: 2c59 8bbd a530 5a3f 8342 19be 15b9 993e
00000230: e0e3 67bc 9b74 d7bc c21c d8be 4003 35be
00000240: df87 26bf fe12 673f cfc1 54be 5590 153f
00000250: 88e3 763e 8c8b 363e f5e8 8a3f b345 1bbe
00000260: 2465 413e ca71 12bf c867 9bbf 271e 8f3f
00000270: a0a7 04be 269c 03bf a6ea 4d3f 58e5 563d
00000280: 31ae 843f 248e 15bf 48ac 16be 6abf 60bf
00000290: 18e5 16be 9c9d 703f 505f d03e 69a8 31bf
000002a0: d0ed 693e b9a5 593f ba30 c4be 6e0d 3f3f
000002b0: 80cf 6b3d a137 62be 8190 2fbf 002f 613b
000002c0: d39b 833f 9331 14bf 80b0 84bd cf47 dcbe
000002d0: 10fa 77bd 7907 633f ee8f dbbe 3086 3a3f
000002e0: ac2f 483e 615a 8c3f d894 933f 7058 83bf
000002f0: 08fc 60bd 0b1a 593f a7be 8a3c 2e00 6bbe
00000300: 4017 273d 5410 04be 8efb 21be 468a 1ebe
00000310: ce0e 5f3e 6fb3 aabe a40c ba3d f2cf b3bd
00000320: 102e eebc 2776 663d ba10 fdbd 496e 703d
00000330: 8217 393e a072 a2be e4db a13c 484f 413d
00000340: db1f 833f fb3d a6be 400c 8c3d 7916 7dbf
00000350: 0003 03bd a3b0 ab3f cf09 453e 7e97 06bf
00000360: a2c6 70be b68f 103f 6b2f 1ebf 842a 7e3f
00000370: 146a 1bbe 97f8 bfbe 1bcb 24bf 8839 363d
00000380: d434 123c f607 c03e 3e57 143e 4cf7 943f
00000390: f2ab 4e3e 3249 06bf 0296 bcbe 4e1f 923f
000003a0: 50b5 8bbd 72f2 073f d16a a73f fbda 89bf
000003b0: fc67 d03d adac a93f be69 613f 1a55 7e3e
000003c0: f0cd 65bf 87e2 983f 60c5 5b3c 1b39 f93e
000003d0: 4a97 33be 23e6 dfbf 80ca cd3e c1fa 593f
000003e0: 54aa 6bbe a0f4 a3bf 7509 a5bf 3241 0cc0
000003f0: d022 1dbe b231 f23e 7838 c33f 0c4d 98bd

layers.4.bias f4 [16]
-0.07271969 0.14682117 -0.2941736 -0.11820814 0.4201038 -0.3473623 0.17051128 0.09814929
0.3428782 0.47930422 0.08710595 -0.07406115 -0.0852389 0.13352205 0.14537768 0.5902498
00000000: 10ee 94bd 4a58 163e ec9d 96be 1c17 f2bd
00000010: d817 d73e 79d9 b1be 829a 2e3e 7f02 c93d
00000020: bb8d af3e 5d67 f53e 9b64 b23d 5fad 97bd
00000030: bb91 aebd 01ba 083e e3dd 143e 9c1a 173f

layers.6.weight f4 [3, 16]
-0.19082487 0.87333643 -0.7900336 -0.19776598 0.8991395 -1.1463861 1.1246529 1.091245
-0.9146794 0.17863777 -1.1716344 0.39172542 -0.13582686 -1.341033 0.85809445 0.9481753
0.18969116 1.073689 1.0810392 -0.149281 -0.9236737 1.1487383 0.50413203 -0.19425713
1.1154673 -1.0907967 1.1334475 1.5790879 -0.14510621 0.8850398 -0.14328359 -1.2679086
-0.0051048994 -1.3086601 -0.3714968 0.101739794 -1.0196129 -0.2258634 -1.1792955 -1.220992
0.32943553 1.2440759 0.50717556 -1.3107494 -0.14062738 0.5073655 -1.2073838 0.83375525
00000000: 9867 43be fa92 5f3f a43f 4abf 2a83 4abe
00000010: 022e 663f c8bc 92bf a0f4 8f3f ebad 8b3f
00000020: 6e28 6abf d2ec 363e 1ef8 95bf 3c90 c83e
00000030: 3216 0bbe f8a6 abbf 14ac 5b3f 9ebb 723f
00000040: 663e 423e a46e 893f 7e5f 8a3f 1edd 18be
00000050: e175 6cbf db09 933f cc0e 013f 57eb 46be
00000060: a2c7 8e3f 3a9f 8bbf cf14 913f 8d1f ca3f
00000070: b996 14be f891 623f efb8 12be d44a a2bf
00000080: 0047 a7bb 2d82 a7bf d434 bebe f45c d03d
00000090: ad82 82bf bc48 67be 28f3 96bf 7749 9cbf
000000a0: c6ab a83e e13d 9f3f 42d6 013f a3c6 a7bf
000000b0: a000 10be b5e2 013f 8d8b 9abf fc70 553f

layers.6.bias f4 [3]
0.29721037 -0.43920907 0.3477864
00000000: f52b 983e 03e0 e0be 0f11 b23e
